…
me=None, tracker=botsort.yaml, translate=0.1, val=True, verbose=True, vid_stride=1, visualize=False, warmup_bias_lr=0.1, warmup_epochs=3.0, warmup_momentum=0.8, weight_decay=0.0005, workers=4, workspace=None
117.5s	80	
␛[KDownloading https://ultralytics.com/assets/Arial.ttf to '/root/.config/Ultralytics/Arial.ttf': 100% ━━━━━━━━━━━━ 755.1KB 16.4MB/s 0.0s
117.5s	81	Overriding model.yaml nc=80 with nc=1
117.5s	82	
117.5s	83	                   from  n    params  module                                       arguments                     
117.5s	84	  0                  -1  1      1856  ultralytics.nn.modules.conv.Conv             [3, 64, 3, 2]                 
117.5s	85	  1                  -1  1     73984  ultralytics.nn.modules.conv.Conv             [64, 128, 3, 2]               
117.5s	86	  2                  -1  1    111872  ultralytics.nn.modules.block.C3k2            [128, 256, 1, True, 0.25]     
117.6s	87	  3                  -1  1    590336  ultralytics.nn.modules.conv.Conv             [256, 256, 3, 2]              
117.6s	88	  4                  -1  1    444928  ultralytics.nn.modules.block.C3k2            [256, 512, 1, True, 0.25]     
117.6s	89	  5                  -1  1   2360320  ultralytics.nn.modules.conv.Conv             [512, 512, 3, 2]              
117.6s	90	  6                  -1  1   1380352  ultralytics.nn.modules.block.C3k2            [512, 512, 1, True]           
117.6s	91	  7                  -1  1   2360320  ultralytics.nn.modules.conv.Conv             [512, 512, 3, 2]              
117.7s	92	  8                  -1  1   1380352  ultralytics.nn.modules.block.C3k2            [512, 512, 1, True]           
117.7s	93	  9                  -1  1    656896  ultralytics.nn.modules.block.SPPF            [512, 512, 5]                 
117.7s	94	 10                  -1  1    990976  ultralytics.nn.modules.block.C2PSA           [512, 512, 1]                 
117.7s	95	 11                  -1  1         0  torch.nn.modules.upsampling.Upsample         [None, 2, 'nearest']          
117.7s	96	 12             [-1, 6]  1         0  ultralytics.nn.modules.conv.Concat           [1]                           
117.7s	97	 13                  -1  1   1642496  ultralytics.nn.modules.block.C3k2            [1024, 512, 1, True]          
117.7s	98	 14                  -1  1         0  torch.nn.modules.upsampling.Upsample         [None, 2, 'nearest']          
117.7s	99	 15             [-1, 4]  1         0  ultralytics.nn.modules.conv.Concat           [1]                           
117.7s	100	 16                  -1  1    542720  ultralytics.nn.modules.block.C3k2            [1024, 256, 1, True]          
117.7s	101	 17                  -1  1    590336  ultralytics.nn.modules.conv.Conv             [256, 256, 3, 2]              
117.7s	102	 18            [-1, 13]  1         0  ultralytics.nn.modules.conv.Concat           [1]                           
117.8s	103	 19                  -1  1   1511424  ultralytics.nn.modules.block.C3k2            [768, 512, 1, True]           
117.8s	104	 20                  -1  1   2360320  ultralytics.nn.modules.conv.Conv             [512, 512, 3, 2]              
117.8s	105	 21            [-1, 10]  1         0  ultralytics.nn.modules.conv.Concat           [1]                           
117.8s	106	 22                  -1  1   1642496  ultralytics.nn.modules.block.C3k2            [1024, 512, 1, True]          
117.8s	107	 23        [16, 19, 22]  1   1411795  ultralytics.nn.modules.head.Detect           [1, 16, None, [256, 512, 512]]
118.5s	108	YOLO11m summary: 232 layers, 20,053,779 parameters, 20,053,763 gradients, 68.2 GFLOPs
118.5s	109	
118.6s	110	Transferred 643/649 items from pretrained weights
118.6s	111	␛[34m␛[1mDDP:␛[0m debug command /opt/conda/bin/python -m torch.distributed.run --nproc_per_node 2 --master_port 37303 /root/.config/Ultralytics/DDP/_temp_yd1ktau8140287466633920.py
122.3s	112	Ultralytics 8.4.21 🚀 Python-3.10.12 torch-2.0.0 CUDA:0 (Tesla T4, 14913MiB)
…
