…
me=None, tracker=botsort.yaml, translate=0.1, val=True, verbose=True, vid_stride=1, visualize=False, warmup_bias_lr=0.1, warmup_epochs=3.0, warmup_momentum=0.8, weight_decay=0.0005, workers=4, workspace=None
223.3s	85	
␛[KDownloading https://ultralytics.com/assets/Arial.ttf to '/root/.config/Ultralytics/Arial.ttf': 100% ━━━━━━━━━━━━ 755.1KB 14.0MB/s 0.1s
223.3s	86	Overriding model.yaml nc=80 with nc=1
223.3s	87	
223.3s	88	                   from  n    params  module                                       arguments                     
223.3s	89	  0                  -1  1      1856  ultralytics.nn.modules.conv.Conv             [3, 64, 3, 2]                 
223.3s	90	  1                  -1  1     73984  ultralytics.nn.modules.conv.Conv             [64, 128, 3, 2]               
223.3s	91	  2                  -1  2    173824  ultralytics.nn.modules.block.C3k2            [128, 256, 2, True, 0.25]     
223.3s	92	  3                  -1  1    590336  ultralytics.nn.modules.conv.Conv             [256, 256, 3, 2]              
223.3s	93	  4                  -1  2    691712  ultralytics.nn.modules.block.C3k2            [256, 512, 2, True, 0.25]     
223.3s	94	  5                  -1  1   2360320  ultralytics.nn.modules.conv.Conv             [512, 512, 3, 2]              
223.4s	95	  6                  -1  2   2234368  ultralytics.nn.modules.block.C3k2            [512, 512, 2, True]           
223.4s	96	  7                  -1  1   2360320  ultralytics.nn.modules.conv.Conv             [512, 512, 3, 2]              
223.5s	97	  8                  -1  2   2234368  ultralytics.nn.modules.block.C3k2            [512, 512, 2, True]           
223.5s	98	  9                  -1  1    656896  ultralytics.nn.modules.block.SPPF            [512, 512, 5]                 
223.5s	99	 10                  -1  2   1455616  ultralytics.nn.modules.block.C2PSA           [512, 512, 2]                 
223.5s	100	 11                  -1  1         0  torch.nn.modules.upsampling.Upsample         [None, 2, 'nearest']          
223.5s	101	 12             [-1, 6]  1         0  ultralytics.nn.modules.conv.Concat           [1]                           
223.5s	102	 13                  -1  2   2496512  ultralytics.nn.modules.block.C3k2            [1024, 512, 2, True]          
223.5s	103	 14                  -1  1         0  torch.nn.modules.upsampling.Upsample         [None, 2, 'nearest']          
223.5s	104	 15             [-1, 4]  1         0  ultralytics.nn.modules.conv.Concat           [1]                           
223.5s	105	 16                  -1  2    756736  ultralytics.nn.modules.block.C3k2            [1024, 256, 2, True]          
223.5s	106	 17                  -1  1    590336  ultralytics.nn.modules.conv.Conv             [256, 256, 3, 2]              
223.5s	107	 18            [-1, 13]  1         0  ultralytics.nn.modules.conv.Concat           [1]                           
223.6s	108	 19                  -1  2   2365440  ultralytics.nn.modules.block.C3k2            [768, 512, 2, True]           
223.6s	109	 20                  -1  1   2360320  ultralytics.nn.modules.conv.Conv             [512, 512, 3, 2]              
223.6s	110	 21            [-1, 10]  1         0  ultralytics.nn.modules.conv.Concat           [1]                           
223.7s	111	 22                  -1  2   2496512  ultralytics.nn.modules.block.C3k2            [1024, 512, 2, True]          
223.7s	112	 23        [16, 19, 22]  1   1411795  ultralytics.nn.modules.head.Detect           [1, 16, None, [256, 512, 512]]
224.6s	113	YOLO11l summary: 358 layers, 25,311,251 parameters, 25,311,235 gradients, 87.3 GFLOPs
224.6s	114	
224.7s	115	Transferred 1009/1015 items from pretrained weights
224.7s	116	␛[34m␛[1mDDP:␛[0m debug command /usr/bin/python3 -m torch.distributed.run --nproc_per_node 2 --master_port 46703 /root/.config/Ultralytics/DDP/_temp_q6dddwy2135246642512576.py
229.9s	117	Ultralytics 8.4.19 🚀 Python-3.12.12 torch-2.9.0+cu126 CUDA:0 (Tesla T4, 14913MiB)
…
